…
2025-06-25 12:39:19.417 | INFO     | utils.common:log:12 - enable Subspace Scaffold for weights in module: conv2
2025-06-25 12:39:19.418 | INFO     | utils.common:log:12 - enable Subspace Scaffold for weights in module: conv1
2025-06-25 12:39:19.418 | INFO     | utils.common:log:12 - enable Subspace Scaffold for weights in module: conv2
2025-06-25 12:39:19.418 | INFO     | utils.common:log:12 - enable Subspace Scaffold for weights in module: conv1
2025-06-25 12:39:19.419 | INFO     | utils.common:log:12 - enable Subspace Scaffold for weights in module: conv2
2025-06-25 12:39:19.421 | INFO     | utils.common:log:12 - 
ResNet(
  (conv1): SubScafConv2d(comp_dim=3, kernel_size=7)
  (bn1): BatchNorm2d(16, eps=1e-05, momentum=0.1, affine=True, track_running_stats=True)
  (layer1): Sequential(
    (0): BasicBlock(
      (conv1): SubScafConv2d(comp_dim=3, kernel_size=7)
      (bn1): BatchNorm2d(16, eps=1e-05, momentum=0.1, affine=True, track_running_stats=True)
      (conv2): SubScafConv2d(comp_dim=3, kernel_size=7)
      (bn2): BatchNorm2d(16, eps=1e-05, momentum=0.1, affine=True, track_running_stats=True)
      (shortcut): Sequential()
    )
    (1): BasicBlock(
      (conv1): SubScafConv2d(comp_dim=3, kernel_size=7)
      (bn1): BatchNorm2d(16, eps=1e-05, momentum=0.1, affine=True, track_running_stats=True)
      (conv2): SubScafConv2d(comp_dim=3, kernel_size=7)
      (bn2): BatchNorm2d(16, eps=1e-05, momentum=0.1, affine=True, track_running_stats=True)
      (shortcut): Sequential()
    )
    (2): BasicBlock(
      (conv1): SubScafConv2d(comp_dim=3, kernel_size=7)
      (bn1): BatchNorm2d(16, eps=1e-05, momentum=0.1, affine=True, track_running_stats=True)
      (conv2): SubScafConv2d(comp_dim=3, kernel_size=7)
      (bn2): BatchNorm2d(16, eps=1e-05, momentum=0.1, affine=True, track_running_stats=True)
      (shortcut): Sequential()
    )
    (3): BasicBlock(
      (conv1): SubScafConv2d(comp_dim=3, kernel_size=7)
      (bn1): BatchNorm2d(16, eps=1e-05, momentum=0.1, affine=True, track_running_stats=True)
      (conv2): SubScafConv2d(comp_dim=3, kernel_size=7)
      (bn2): BatchNorm2d(16, eps=1e-05, momentum=0.1, affine=True, track_running_stats=True)
      (shortcut): Sequential()
    )
    (4): BasicBlock(
      (conv1): SubScafConv2d(comp_dim=3, kernel_size=7)
      (bn1): BatchNorm2d(16, eps=1e-05, momentum=0.1, affine=True, track_running_stats=True)
      (conv2): SubScafConv2d(comp_dim=3, kernel_size=7)
      (bn2): BatchNorm2d(16, eps=1e-05, momentum=0.1, affine=True, track_running_stats=True)
      (shortcut): Sequential()
    )
    (5): BasicBlock(
      (conv1): SubScafConv2d(comp_dim=3, kernel_size=7)
      (bn1): BatchNorm2d(16, eps=1e-05, momentum=0.1, affine=True, track_running_stats=True)
      (conv2): SubScafConv2d(comp_dim=3, kernel_size=7)
      (bn2): BatchNorm2d(16, eps=1e-05, momentum=0.1, affine=True, track_running_stats=True)
      (shortcut): Sequential()
    )
    (6): BasicBlock(
      (conv1): SubScafConv2d(comp_dim=3, kernel_size=7)
      (bn1): BatchNorm2d(16, eps=1e-05, momentum=0.1, affine=True, track_running_stats=True)
      (conv2): SubScafConv2d(comp_dim=3, kernel_size=7)
      (bn2): BatchNorm2d(16, eps=1e-05, momentum=0.1, affine=True, track_running_stats=True)
      (shortcut): Sequential()
    )
    (7): BasicBlock(
      (conv1): SubScafConv2d(comp_dim=3, kernel_size=7)
      (bn1): BatchNorm2d(16, eps=1e-05, momentum=0.1, affine=True, track_running_stats=True)
      (conv2): SubScafConv2d(comp_dim=3, kernel_size=7)
      (bn2): BatchNorm2d(16, eps=1e-05, momentum=0.1, affine=True, track_running_stats=True)
      (shortcut): Sequential()
    )
    (8): BasicBlock(
      (conv1): SubScafConv2d(comp_dim=3, kernel_size=7)
      (bn1): BatchNorm2d(16, eps=1e-05, momentum=0.1, affine=True, track_running_stats=True)
      (conv2): SubScafConv2d(comp_dim=3, kernel_size=7)
      (bn2): BatchNorm2d(16, eps=1e-05, momentum=0.1, affine=True, track_running_stats=True)
      (shortcut): Sequential()
    )
    (9): BasicBlock(
      (conv1): SubScafConv2d(comp_dim=3, kernel_size=7)
      (bn1): BatchNorm2d(16, eps=1e-05, momentum=0.1, affine=True, track_running_stats=True)
      (conv2): SubScafConv2d(comp_dim=3, kernel_size=7)
      (bn2): BatchNorm2d(16, eps=1e-05, momentum=0.1, affine=True, track_running_stats=True)
      (shortcut): Sequential()
    )
    (10): BasicBlock(
      (conv1): SubScafConv2d(comp_dim=3, kernel_size=7)
      (bn1): BatchNorm2d(16, eps=1e-05, momentum=0.1, affine=True, track_running_stats=True)
      (conv2): SubScafConv2d(comp_dim=3, kernel_size=7)
      (bn2): BatchNorm2d(16, eps=1e-05, momentum=0.1, affine=True, track_running_stats=True)
      (shortcut): Sequential()
    )
    (11): BasicBlock(
      (conv1): SubScafConv2d(comp_dim=3, kernel_size=7)
      (bn1): BatchNorm2d(16, eps=1e-05, momentum=0.1, affine=True, track_running_stats=True)
      (conv2): SubScafConv2d(comp_dim=3, kernel_size=7)
      (bn2): BatchNorm2d(16, eps=1e-05, momentum=0.1, affine=True, track_running_stats=True)
      (shortcut): Sequential()
    )
    (12): BasicBlock(
      (conv1): SubScafConv2d(comp_dim=3, kernel_size=7)
      (bn1): BatchNorm2d(16, eps=1e-05, momentum=0.1, affine=True, track_running_stats=True)
      (conv2): SubScafConv2d(comp_dim=3, kernel_size=7)
      (bn2): BatchNorm2d(16, eps=1e-05, momentum=0.1, affine=True, track_running_stats=True)
      (shortcut): Sequential()
    )
    (13): BasicBlock(
      (conv1): SubScafConv2d(comp_dim=3, kernel_size=7)
      (bn1): BatchNorm2d(16, eps=1e-05, momentum=0.1, affine=True, track_running_stats=True)
      (conv2): SubScafConv2d(comp_dim=3, kernel_size=7)
      (bn2): BatchNorm2d(16, eps=1e-05, momentum=0.1, affine=True, track_running_stats=True)
      (shortcut): Sequential()
    )
    (14): BasicBlock(
      (conv1): SubScafConv2d(comp_dim=3, kernel_size=7)
      (bn1): BatchNorm2d(16, eps=1e-05, momentum=0.1, affine=True, track_running_stats=True)
      (conv2): SubScafConv2d(comp_dim=3, kernel_size=7)
      (bn2): BatchNorm2d(16, eps=1e-05, momentum=0.1, affine=True, track_running_stats=True)
      (shortcut): Sequential()
    )
    (15): BasicBlock(
      (conv1): SubScafConv2d(comp_dim=3, kernel_size=7)
      (bn1): BatchNorm2d(16, eps=1e-05, momentum=0.1, affine=True, track_running_stats=True)
      (conv2): SubScafConv2d(comp_dim=3, kernel_size=7)
      (bn2): BatchNorm2d(16, eps=1e-05, momentum=0.1, affine=True, track_running_stats=True)
      (shortcut): Sequential()
    )
    (16): BasicBlock(
      (conv1): SubScafConv2d(comp_dim=3, kernel_size=7)
      (bn1): BatchNorm2d(16, eps=1e-05, momentum=0.1, affine=True, track_running_stats=True)
      (conv2): SubScafConv2d(comp_dim=3, kernel_size=7)
      (bn2): BatchNorm2d(16, eps=1e-05, momentum=0.1, affine=True, track_running_stats=True)
      (shortcut): Sequential()
    )
    (17): BasicBlock(
      (conv1): SubScafConv2d(comp_dim=3, kernel_size=7)
      (bn1): BatchNorm2d(16, eps=1e-05, momentum=0.1, affine=True, track_running_stats=True)
      (conv2): SubScafConv2d(comp_dim=3, kernel_size=7)
      (bn2): BatchNorm2d(16, eps=1e-05, momentum=0.1, affine=True, track_running_stats=True)
      (shortcut): Sequential()
    )
  )
  (layer2): Sequential(
    (0): BasicBlock(
      (conv1): SubScafConv2d(comp_dim=3, kernel_size=7)
      (bn1): BatchNorm2d(32, eps=1e-05, momentum=0.1, affine=True, track_running_stats=True)
      (conv2): SubScafConv2d(comp_dim=3, kernel_size=7)
      (bn2): BatchNorm2d(32, eps=1e-05, momentum=0.1, affine=True, track_running_stats=True)
      (shortcut): LambdaLayer()
    )
    (1): BasicBlock(
      (conv1): SubScafConv2d(comp_dim=3, kernel_size=7)
      (bn1): BatchNorm2d(32, eps=1e-05, momentum=0.1, affine=True, track_running_stats=True)
      (conv2): SubScafConv2d(comp_dim=3, kernel_size=7)
      (bn2): BatchNorm2d(32, eps=1e-05, momentum=0.1, affine=True, track_running_stats=True)
      (shortcut): Sequential()
    )
    (2): BasicBlock(
      (conv1): SubScafConv2d(comp_dim=3, kernel_size=7)
      (bn1): BatchNorm2d(32, eps=1e-05, momentum=0.1, affine=True, track_running_stats=True)
      (conv2): SubScafConv2d(comp_dim=3, kernel_size=7)
      (bn2): BatchNorm2d(32, eps=1e-05, momentum=0.1, affine=True, track_running_stats=True)
      (shortcut): Sequential()
    )
    (3): BasicBlock(
      (conv1): SubScafConv2d(comp_dim=3, kernel_size=7)
      (bn1): BatchNorm2d(32, eps=1e-05, momentum=0.1, affine=True, track_running_stats=True)
      (conv2): SubScafConv2d(comp_dim=3, kernel_size=7)
      (bn2): BatchNorm2d(32, eps=1e-05, momentum=0.1, affine=True, track_running_stats=True)
      (shortcut): Sequential()
    )
    (4): BasicBlock(
      (conv1): SubScafConv2d(comp_dim=3, kernel_size=7)
      (bn1): BatchNorm2d(32, eps=1e-05, momentum=0.1, affine=True, track_running_stats=True)
      (conv2): SubScafConv2d(comp_dim=3, kernel_size=7)
      (bn2): BatchNorm2d(32, eps=1e-05, momentum=0.1, affine=True, track_running_stats=True)
      (shortcut): Sequential()
    )
    (5): BasicBlock(
      (conv1): SubScafConv2d(comp_dim=3, kernel_size=7)
      (bn1): BatchNorm2d(32, eps=1e-05, momentum=0.1, affine=True, track_running_stats=True)
      (conv2): SubScafConv2d(comp_dim=3, kernel_size=7)
      (bn2): BatchNorm2d(32, eps=1e-05, momentum=0.1, affine=True, track_running_stats=True)
      (shortcut): Sequential()
    )
    (6): BasicBlock(
      (conv1): SubScafConv2d(comp_dim=3, kernel_size=7)
      (bn1): BatchNorm2d(32, eps=1e-05, momentum=0.1, affine=True, track_running_stats=True)
      (conv2): SubScafConv2d(comp_dim=3, kernel_size=7)
      (bn2): BatchNorm2d(32, eps=1e-05, momentum=0.1, affine=True, track_running_stats=True)
      (shortcut): Sequential()
    )
    (7): BasicBlock(
      (conv1): SubScafConv2d(comp_dim=3, kernel_size=7)
      (bn1): BatchNorm2d(32, eps=1e-05, momentum=0.1, affine=True, track_running_stats=True)
      (conv2): SubScafConv2d(comp_dim=3, kernel_size=7)
      (bn2): BatchNorm2d(32, eps=1e-05, momentum=0.1, affine=True, track_running_stats=True)
      (shortcut): Sequential()
    )
    (8): BasicBlock(
      (conv1): SubScafConv2d(comp_dim=3, kernel_size=7)
      (bn1): BatchNorm2d(32, eps=1e-05, momentum=0.1, affine=True, track_running_stats=True)
      (conv2): SubScafConv2d(comp_dim=3, kernel_size=7)
      (bn2): BatchNorm2d(32, eps=1e-05, momentum=0.1, affine=True, track_running_stats=True)
      (shortcut): Sequential()
    )
    (9): BasicBlock(
      (conv1): SubScafConv2d(comp_dim=3, kernel_size=7)
      (bn1): BatchNorm2d(32, eps=1e-05, momentum=0.1, affine=True, track_running_stats=True)
      (conv2): SubScafConv2d(comp_dim=3, kernel_size=7)
      (bn2): BatchNorm2d(32, eps=1e-05, momentum=0.1, affine=True, track_running_stats=True)
      (shortcut): Sequential()
    )
    (10): BasicBlock(
      (conv1): SubScafConv2d(comp_dim=3, kernel_size=7)
      (bn1): BatchNorm2d(32, eps=1e-05, momentum=0.1, affine=True, track_running_stats=True)
      (conv2): SubScafConv2d(comp_dim=3, kernel_size=7)
      (bn2): BatchNorm2d(32, eps=1e-05, momentum=0.1, affine=True, track_running_stats=True)
      (shortcut): Sequential()
    )
    (11): BasicBlock(
      (conv1): SubScafConv2d(comp_dim=3, kernel_size=7)
      (bn1): BatchNorm2d(32, eps=1e-05, momentum=0.1, affine=True, track_running_stats=True)
      (conv2): SubScafConv2d(comp_dim=3, kernel_size=7)
      (bn2): BatchNorm2d(32, eps=1e-05, momentum=0.1, affine=True, track_running_stats=True)
      (shortcut): Sequential()
    )
    (12): BasicBlock(
      (conv1): SubScafConv2d(comp_dim=3, kernel_size=7)
      (bn1): BatchNorm2d(32, eps=1e-05, momentum=0.1, affine=True, track_running_stats=True)
      (conv2): SubScafConv2d(comp_dim=3, kernel_size=7)
      (bn2): BatchNorm2d(32, eps=1e-05, momentum=0.1, affine=True, track_running_stats=True)
      (shortcut): Sequential()
    )
    (13): BasicBlock(
      (conv1): SubScafConv2d(comp_dim=3, kernel_size=7)
      (bn1): BatchNorm2d(32, eps=1e-05, momentum=0.1, affine=True, track_running_stats=True)
      (conv2): SubScafConv2d(comp_dim=3, kernel_size=7)
      (bn2): BatchNorm2d(32, eps=1e-05, momentum=0.1, affine=True, track_running_stats=True)
      (shortcut): Sequential()
    )
    (14): BasicBlock(
      (conv1): SubScafConv2d(comp_dim=3, kernel_size=7)
      (bn1): BatchNorm2d(32, eps=1e-05, momentum=0.1, affine=True, track_running_stats=True)
      (conv2): SubScafConv2d(comp_dim=3, kernel_size=7)
      (bn2): BatchNorm2d(32, eps=1e-05, momentum=0.1, affine=True, track_running_stats=True)
      (shortcut): Sequential()
    )
    (15): BasicBlock(
      (conv1): SubScafConv2d(comp_dim=3, kernel_size=7)
      (bn1): BatchNorm2d(32, eps=1e-05, momentum=0.1, affine=True, track_running_stats=True)
      (conv2): SubScafConv2d(comp_dim=3, kernel_size=7)
      (bn2): BatchNorm2d(32, eps=1e-05, momentum=0.1, affine=True, track_running_stats=True)
      (shortcut): Sequential()
    )
    (16): BasicBlock(
      (conv1): SubScafConv2d(comp_dim=3, kernel_size=7)
      (bn1): BatchNorm2d(32, eps=1e-05, momentum=0.1, affine=True, track_running_stats=True)
      (conv2): SubScafConv2d(comp_dim=3, kernel_size=7)
      (bn2): BatchNorm2d(32, eps=1e-05, momentum=0.1, affine=True, track_running_stats=True)
      (shortcut): Sequential()
    )
    (17): BasicBlock(
      (conv1): SubScafConv2d(comp_dim=3, kernel_size=7)
      (bn1): BatchNorm2d(32, eps=1e-05, momentum=0.1, affine=True, track_running_stats=True)
      (conv2): SubScafConv2d(comp_dim=3, kernel_size=7)
      (bn2): BatchNorm2d(32, eps=1e-05, momentum=0.1, affine=True, track_running_stats=True)
      (shortcut): Sequential()
    )
  )
  (layer3): Sequential(
    (0): BasicBlock(
      (conv1): SubScafConv2d(comp_dim=3, kernel_size=7)
      (bn1): BatchNorm2d(64, eps=1e-05, momentum=0.1, affine=True, track_running_stats=True)
      (conv2): SubScafConv2d(comp_dim=3, kernel_size=7)
      (bn2): BatchNorm2d(64, eps=1e-05, momentum=0.1, affine=True, track_running_stats=True)
      (shortcut): LambdaLayer()
    )
    (1): BasicBlock(
      (conv1): SubScafConv2d(comp_dim=3, kernel_size=7)
      (bn1): BatchNorm2d(64, eps=1e-05, momentum=0.1, affine=True, track_running_stats=True)
      (conv2): SubScafConv2d(comp_dim=3, kernel_size=7)
      (bn2): BatchNorm2d(64, eps=1e-05, momentum=0.1, affine=True, track_running_stats=True)
      (shortcut): Sequential()
    )
    (2): BasicBlock(
      (conv1): SubScafConv2d(comp_dim=3, kernel_size=7)
      (bn1): BatchNorm2d(64, eps=1e-05, momentum=0.1, affine=True, track_running_stats=True)
      (conv2): SubScafConv2d(comp_dim=3, kernel_size=7)
      (bn2): BatchNorm2d(64, eps=1e-05, momentum=0.1, affine=True, track_running_stats=True)
      (shortcut): Sequential()
    )
    (3): BasicBlock(
      (conv1): SubScafConv2d(comp_dim=3, kernel_size=7)
      (bn1): BatchNorm2d(64, eps=1e-05, momentum=0.1, affine=True, track_running_stats=True)
      (conv2): SubScafConv2d(comp_dim=3, kernel_size=7)
      (bn2): BatchNorm2d(64, eps=1e-05, momentum=0.1, affine=True, track_running_stats=True)
      (shortcut): Sequential()
    )
    (4): BasicBlock(
      (conv1): SubScafConv2d(comp_dim=3, kernel_size=7)
      (bn1): BatchNorm2d(64, eps=1e-05, momentum=0.1, affine=True, track_running_stats=True)
      (conv2): SubScafConv2d(comp_dim=3, kernel_size=7)
      (bn2): BatchNorm2d(64, eps=1e-05, momentum=0.1, affine=True, track_running_stats=True)
      (shortcut): Sequential()
    )
    (5): BasicBlock(
      (conv1): SubScafConv2d(comp_dim=3, kernel_size=7)
      (bn1): BatchNorm2d(64, eps=1e-05, momentum=0.1, affine=True, track_running_stats=True)
      (conv2): SubScafConv2d(comp_dim=3, kernel_size=7)
      (bn2): BatchNorm2d(64, eps=1e-05, momentum=0.1, affine=True, track_running_stats=True)
      (shortcut): Sequential()
    )
    (6): BasicBlock(
      (conv1): SubScafConv2d(comp_dim=3, kernel_size=7)
      (bn1): BatchNorm2d(64, eps=1e-05, momentum=0.1, affine=True, track_running_stats=True)
      (conv2): SubScafConv2d(comp_dim=3, kernel_size=7)
      (bn2): BatchNorm2d(64, eps=1e-05, momentum=0.1, affine=True, track_running_stats=True)
      (shortcut): Sequential()
    )
    (7): BasicBlock(
      (conv1): SubScafConv2d(comp_dim=3, kernel_size=7)
      (bn1): BatchNorm2d(64, eps=1e-05, momentum=0.1, affine=True, track_running_stats=True)
      (conv2): SubScafConv2d(comp_dim=3, kernel_size=7)
      (bn2): BatchNorm2d(64, eps=1e-05, momentum=0.1, affine=True, track_running_stats=True)
      (shortcut): Sequential()
    )
    (8): BasicBlock(
      (conv1): SubScafConv2d(comp_dim=3, kernel_size=7)
      (bn1): BatchNorm2d(64, eps=1e-05, momentum=0.1, affine=True, track_running_stats=True)
      (conv2): SubScafConv2d(comp_dim=3, kernel_size=7)
      (bn2): BatchNorm2d(64, eps=1e-05, momentum=0.1, affine=True, track_running_stats=True)
      (shortcut): Sequential()
    )
    (9): BasicBlock(
      (conv1): SubScafConv2d(comp_dim=3, kernel_size=7)
      (bn1): BatchNorm2d(64, eps=1e-05, momentum=0.1, affine=True, track_running_stats=True)
      (conv2): SubScafConv2d(comp_dim=3, kernel_size=7)
      (bn2): BatchNorm2d(64, eps=1e-05, momentum=0.1, affine=True, track_running_stats=True)
      (shortcut): Sequential()
    )
    (10): BasicBlock(
      (conv1): SubScafConv2d(comp_dim=3, kernel_size=7)
      (bn1): BatchNorm2d(64, eps=1e-05, momentum=0.1, affine=True, track_running_stats=True)
      (conv2): SubScafConv2d(comp_dim=3, kernel_size=7)
      (bn2): BatchNorm2d(64, eps=1e-05, momentum=0.1, affine=True, track_running_stats=True)
      (shortcut): Sequential()
    )
    (11): BasicBlock(
      (conv1): SubScafConv2d(comp_dim=3, kernel_size=7)
      (bn1): BatchNorm2d(64, eps=1e-05, momentum=0.1, affine=True, track_running_stats=True)
      (conv2): SubScafConv2d(comp_dim=3, kernel_size=7)
      (bn2): BatchNorm2d(64, eps=1e-05, momentum=0.1, affine=True, track_running_stats=True)
      (shortcut): Sequential()
    )
    (12): BasicBlock(
      (conv1): SubScafConv2d(comp_dim=3, kernel_size=7)
      (bn1): BatchNorm2d(64, eps=1e-05, momentum=0.1, affine=True, track_running_stats=True)
      (conv2): SubScafConv2d(comp_dim=3, kernel_size=7)
      (bn2): BatchNorm2d(64, eps=1e-05, momentum=0.1, affine=True, track_running_stats=True)
      (shortcut): Sequential()
    )
    (13): BasicBlock(
      (conv1): SubScafConv2d(comp_dim=3, kernel_size=7)
      (bn1): BatchNorm2d(64, eps=1e-05, momentum=0.1, affine=True, track_running_stats=True)
      (conv2): SubScafConv2d(comp_dim=3, kernel_size=7)
      (bn2): BatchNorm2d(64, eps=1e-05, momentum=0.1, affine=True, track_running_stats=True)
      (shortcut): Sequential()
    )
    (14): BasicBlock(
      (conv1): SubScafConv2d(comp_dim=3, kernel_size=7)
      (bn1): BatchNorm2d(64, eps=1e-05, momentum=0.1, affine=True, track_running_stats=True)
      (conv2): SubScafConv2d(comp_dim=3, kernel_size=7)
      (bn2): BatchNorm2d(64, eps=1e-05, momentum=0.1, affine=True, track_running_stats=True)
      (shortcut): Sequential()
    )
    (15): BasicBlock(
      (conv1): SubScafConv2d(comp_dim=3, kernel_size=7)
      (bn1): BatchNorm2d(64, eps=1e-05, momentum=0.1, affine=True, track_running_stats=True)
      (conv2): SubScafConv2d(comp_dim=3, kernel_size=7)
      (bn2): BatchNorm2d(64, eps=1e-05, momentum=0.1, affine=True, track_running_stats=True)
      (shortcut): Sequential()
    )
    (16): BasicBlock(
      (conv1): SubScafConv2d(comp_dim=3, kernel_size=7)
      (bn1): BatchNorm2d(64, eps=1e-05, momentum=0.1, affine=True, track_running_stats=True)
      (conv2): SubScafConv2d(comp_dim=3, kernel_size=7)
      (bn2): BatchNorm2d(64, eps=1e-05, momentum=0.1, affine=True, track_running_stats=True)
      (shortcut): Sequential()
    )
    (17): BasicBlock(
      (conv1): SubScafConv2d(comp_dim=3, kernel_size=7)
      (bn1): BatchNorm2d(64, eps=1e-05, momentum=0.1, affine=True, track_running_stats=True)
      (conv2): SubScafConv2d(comp_dim=3, kernel_size=7)
      (bn2): BatchNorm2d(64, eps=1e-05, momentum=0.1, affine=True, track_running_stats=True)
      (shortcut): Sequential()
    )
  )
  (linear): Linear(in_features=64, out_features=100, bias=True)
)

2025-06-25 12:39:19.422 | INFO     | utils.common:log:12 - Total params: 9.37M
2025-06-25 12:39:19.422 | INFO     | utils.common:log:12 - Trainable params before compression: 9.37M
2025-06-25 12:39:19.423 | INFO     | utils.common:log:12 - Trainable params after compression: 4.03M
2025-06-25 12:39:19.423 | INFO     | utils.common:log:12 - Total params with Subspace Scaffold enabled: 4.01M
…
